temp_rnn_model.pth (torch, 20521 bytes, 5 tensors)

rnn.weight_ih_l0 f4 [64, 1]
0	0x3d35f27f	0.044420715
1	0x3d5530a5	0.052048344
2	0xbde5a4fc	-0.11213109
3	0x3d9ba25b	0.07599326
4	0xb8c3808d	-9.322269e-05
5	0xbcf8afba	-0.03035723
6	0x3e272f3b	0.1632661
7	0x3dddc239	0.10828061
8	0xbe18f32e	-0.14936516
9	0xbd6f4c51	-0.05842239
10	0xbc674c34	-0.014117289
11	0x3d36b98c	0.044610545
12	0x3d98fc06	0.07469945
13	0xbd83c186	-0.06433396
14	0x3e1fe45f	0.1561446
15	0xbe56287f	-0.20913886
16	0x3dbcf889	0.09227092
17	0x3e2f2cb5	0.17106898
18	0x3e2e6dba	0.17034045
19	0x3db5b72c	0.08872828
20	0xbe2c52a9	-0.16828407
21	0x3d166c71	0.03672451
22	0x3c04a1c6	0.00809521
23	0x3d3d0bbb	0.046153765
24	0x3e2005e8	0.15627253
25	0xbe096bcd	-0.13420029
26	0xbd77f4bb	-0.060536128
27	0x3e2eb05f	0.17059468
28	0xbe078385	-0.13233764
29	0xbd6c4246	-0.05768039
30	0x3e2178b4	0.15768701
31	0x3c424007	0.011856086
32	0xbdc8c4bc	-0.09803149
33	0xbb4e781e	-0.00315047
34	0xbe53cf72	-0.20684603
35	0x3df8d3cf	0.12149774
36	0xbda69876	-0.08134548
37	0x3ddd2807	0.1079865
38	0x3d9c75c2	0.07639648
39	0xbd7c1bd7	-0.061549988
40	0xbdd22716	-0.10261361
41	0x3e111a63	0.14170222
42	0x3e02ef9a	0.12786713
43	0x3e87dd79	0.26536158
44	0xbd970c6f	-0.073754184
45	0x3e27a7e6	0.16372642
46	0xbd7a8e11	-0.06117064
47	0xbd0f3700	-0.03496456
48	0xbe2d1adc	-0.16904777
49	0x3d3fbf78	0.04681346
50	0x3d1a3c82	0.03765536
51	0x3cfa5fbe	0.030563232
52	0x3df985de	0.12183736
53	0x3d381ef9	0.044951413
54	0x3dfd6c17	0.12374132
55	0x3d40aaa1	0.047037724
56	0x3d8b65f0	0.068065524
57	0xbe2f1a72	-0.17099932
58	0xbdca9aab	-0.09892782
59	0xbda93ab8	-0.08263153
60	0x3df787be	0.12086438
61	0xbdf0446c	-0.117318004
62	0xbe006e70	-0.12542129
63	0xbe16470b	-0.14675538

rnn.weight_hh_l0 f4 [64, 64]
0	0xbe0cbc4f	-0.13743709
1	0xbd553284	-0.05205013
2	0x3bdb6da0	0.006696418
3	0xbdb84b02	-0.089986816
4	0x3e2273d5	0.15864499
5	0xbdb93ffe	-0.09045409
6	0xbdae307a	-0.0850534
7	0x3de799a5	0.11308602
8	0xbae5b190	-0.0017524231
9	0xbb9d804b	-0.0048065535
10	0x3db458da	0.088060096
11	0xbdea09a1	-0.11427618
12	0xbdd8ae9a	-0.105801776
13	0x3dde39bd	0.108508565
14	0x3e264364	0.16236645
15	0xbd92d015	-0.07168595
16	0x3e061195	0.13092645
17	0x3d573240	0.052538157
18	0x3ceaeba9	0.028676825
19	0xbda0fb21	-0.07860399
20	0xbda8bf25	-0.08239583
21	0xbd2a15c4	-0.041524664
22	0x3d3852c0	0.04500079
23	0x3d877039	0.06613202
24	0x3d97e3ce	0.07416497
25	0xbe17ed81	-0.14836694
26	0x3d37c5c2	0.04486633
27	0xbcb8d7b4	-0.022563793
28	0x3d0b6b2f	0.034037765
29	0xbd4456b0	-0.047934234
30	0x3e140d56	0.14458212
31	0x3dbb9259	0.09158773
32	0x3daaedca	0.08346136
33	0x3d9f765e	0.077862486
34	0xbdd4b324	-0.10385731
35	0xbda6d8e5	-0.08146838
36	0xbba3a7fa	-0.0049943896
37	0xbc6ee29c	-0.014580395
38	0xbdc64648	-0.09681374
39	0xbe0b1b85	-0.13584717
40	0x3da4f420	0.08054376
41	0x3dea8064	0.1145027
42	0x3ce96b2f	0.028493492
43	0x3e054b42	0.1301699
44	0xbce77cdc	-0.02825778
45	0xbd176c1f	-0.036968347
46	0x3e07b440	0.13252354
47	0xbdc85e35	-0.097835936
48	0xbe1b7fe4	-0.15185505
49	0x3d36acec	0.044598505
50	0x3d992da6	0.0747941
51	0x3d98432f	0.07434689
52	0x3d8d9f59	0.06915159
53	0x3db91a2b	0.09038194
54	0x3de55a05	0.111988105
55	0xbdd1a1f3	-0.102359675
56	0x3e0238f0	0.12717032
57	0x3dcd2859	0.10017461
58	0x3d34373f	0.043998
59	0x3dbcf828	0.092270195
60	0x3dfc3c50	0.12316191
61	0x3d8a5a1a	0.06755467
62	0x3d100dcf	0.03516942
63	0xbd610d73	-0.054944467
64	0x3d7fcc65	0.062450785
65	0x3c947c2e	0.01812562
66	0xbb66a2d9	-0.003519228
67	0xbd4e7120	-0.050400853
68	0xbe079885	-0.13241775
69	0x3c43dc79	0.01195442
70	0xbd9177c3	-0.07102921
71	0xbd08a7e9	-0.033363257
72	0xbcf12043	-0.029434329
73	0xbddbd8e0	-0.10734725
74	0x3dc1c099	0.09460563
75	0x3c775a41	0.015097202
76	0x3d61b23b	0.055101614
77	0x3d5908f2	0.052987047
78	0x3db505e2	0.08839013
79	0x3d724562	0.0591482
80	0xbe1fd101	-0.15607072
81	0xbda68553	-0.08130898
82	0x3d392801	0.045204166
83	0xbde6dcb2	-0.11272563
84	0x3e00a541	0.1256304
85	0x3d87929a	0.06619759
86	0x3ccb0ec2	0.02478731
87	0xbc18f5e0	-0.009335965
88	0x3d459d52	0.048245735
89	0x3de14707	0.109998755
90	0x3d8d9319	0.06912822
91	0x3db964e3	0.09052446
92	0xbca1c8d4	-0.019749083
93	0xbd6295be	-0.055318587
94	0xbdffd6a5	-0.12492112
95	0x3d77fd14	0.06054409
96	0xbd0718b7	-0.032982554
97	0x3af06aaa	0.0018342335
98	0xbb24b094	-0.0025129663
99	0xbddda865	-0.10823134
100	0xbc93a325	-0.01802213
101	0xbc947b13	-0.018125093
102	0xbd44d710	-0.048056662
103	0x3d82885c	0.06373665
104	0x3ca5b776	0.020229083
105	0x3cec006c	0.028808795
106	0xbdd57c5d	-0.10424111
107	0xbda10b16	-0.078634426
108	0x3dff903d	0.12478683
109	0x3d46aa12	0.048502035
110	0xbd836591	-0.06415857
111	0xbde7ec31	-0.11324347
112	0x3dca81b9	0.09888024
113	0xbdb491ab	-0.088168465
114	0x3c6f77ae	0.014615936
115	0xbd41615a	-0.047211982
116	0x3dd749b3	0.10512104
117	0xbdfb5902	-0.12272836
118	0xbd8d6c63	-0.06905439
119	0xbe06932b	-0.13142078
120	0x3d962994	0.07332149
121	0x3d65d60e	0.05611234
122	0x3ded7015	0.115936436
123	0xbd35cdc3	-0.044385683
124	0xbd8812b4	-0.06644192
125	0x3c831c24	0.01600463
126	0xbda8e061	-0.08245922
127	0x3d031753	0.032004666
128	0xbdb0798f	-0.086169355
129	0xbda1c211	-0.07898343
130	0xbd47a930	-0.048745334
131	0xbde21496	-0.11039083
132	0x3db75bd1	0.089530595
133	0x3e00e15f	0.12585972
134	0x3db5d589	0.08878619
135	0xbca83dd8	-0.020537302
136	0xbd901008	-0.07034308
137	0x3d94f006	0.07272343
138	0x3d52be0d	0.051450778
139	0x3da1b379	0.0789556
140	0xbddeef65	-0.10885505
141	0xbe11d8e5	-0.14242895
142	0xbdc77b41	-0.09740306
143	0x3c914114	0.017731227
144	0xbdc3386c	-0.09532246
145	0xbc3e5bbe	-0.011618553
146	0xbd818830	-0.06324804
147	0xbd77dbce	-0.060512356
148	0x3d68f3da	0.05687318
149	0xbcf23ef0	-0.029571027
150	0xbe0381b0	-0.1284244
151	0xbcfd2887	-0.030903114
152	0xbd7f37bf	-0.062309023
153	0xbcc012d1	-0.023446472
154	0x3db8ee6e	0.09029852
155	0xbdc5987d	-0.096482255
156	0x3dd58bd9	0.104270644
157	0x3de2b58c	0.110697836
158	0xbd9c25f9	-0.0762443
159	0x3dbc2c4d	0.09188137
160	0xbe0494e4	-0.12947422
161	0xbd6ee074	-0.058319524
162	0x3cee2b81	0.029073479
163	0x3dc05676	0.09391491
164	0xbdcb582b	-0.09928926
165	0x3d35320f	0.044237193
166	0xb96510f2	-0.00021845454
167	0xbc87f9fb	-0.016598692
168	0xbd6df580	-0.058095455
169	0x3d4006e5	0.046881575
170	0xbbddd9b5	-0.0067703375
171	0xbd816a43	-0.06319096
172	0xbd1486dd	-0.03626143
173	0xbd12049f	-0.03564894
174	0xbdbcedf0	-0.092250705
175	0x3d1d92de	0.03847014
176	0x3e0947ef	0.13406347
177	0x3dad94e9	0.08475668
178	0xbc5f6822	-0.013635667
179	0xbde8bd68	-0.113642514
180	0x3db2a150	0.08722174
181	0x3daea9c7	0.08528476
182	0xbde1b49f	-0.11020779
183	0xbddf8c3e	-0.10915421
184	0xbe0803a3	-0.13282637
185	0xbdead15a	-0.11465712
186	0x3df2ad67	0.1184948
187	0x3d9c0402	0.07617952
188	0xbddf6d52	-0.10909523
189	0xb8d6ac86	-0.0001023645
190	0xbd3063c5	-0.043063898
191	0x3ce1d52e	0.027567472
192	0xbd6d97c1	-0.058006052
193	0x3d895629	0.06705887
194	0xbd15a25e	-0.0365318
195	0xbdd7174e	-0.10502492
196	0xbd429437	-0.04750463
197	0x3d4b46b3	0.04962797
198	0x3de4c65b	0.11170646
199	0x3df3806c	0.11889729
200	0x3d339adc	0.043848857
201	0x3c897a12	0.01678184
202	0xbd1b2c4d	-0.037884045
203	0x3d6a1c03	0.05715562
204	0x3db3dc52	0.08782257
205	0xbdd31e9d	-0.103085734
206	0x3e08a45b	0.13343947
207	0x3d753dfe	0.059873573
208	0x3da04dd0	0.078273416
209	0x3a4df3ae	0.00078564405
210	0xbdb54402	-0.08850862
211	0xbda43b7a	-0.08019157
212	0xbd82c127	-0.06384497
213	0x3ca9db3c	0.020734422
214	0x3cfe3e1a	0.031035472
215	0x3c8cf5af	0.017206995
216	0x3e043a11	0.12912776
217	0x3d2ea57a	0.04263828
218	0x3daf0da7	0.08547526
219	0x3d35bcf7	0.044369664
220	0x3dc2ec57	0.095177345
221	0x3c3a2f0c	0.011363756
222	0x3cadb5bc	0.021204822
223	0x3dab2bdc	0.08357975
224	0x3daa1db9	0.083064504
225	0xbc832e4e	-0.01601329
226	0xbc97e4c0	-0.018541694
227	0x3d1d6148	0.038422853
228	0xbdcbe9bc	-0.09956691
229	0x3d23ac22	0.03995908
230	0x3d8634cb	0.06553038
231	0xbe00b135	-0.12567599
232	0x3d84c0f5	0.06482116
233	0x3d9c17e0	0.07621741
234	0x3dff5751	0.12467826
235	0x3db1b496	0.08677022
236	0x3da7a02f	0.081848495
237	0x3da8087b	0.082047425
238	0x3da4cc9f	0.08046841
239	0xbd2497aa	-0.0401837
240	0x3c92e223	0.017930096
241	0x3cf5e6cd	0.030017281
242	0x3cd3ceb9	0.025855409
243	0x3deb7e3a	0.11498685
244	0x3cdf6dfd	0.027274126
245	0xbd9180e3	-0.07104661
246	0x3dc954f6	0.09830658
247	0x3ac24057	0.00148202
248	0x3d85eb2d	0.06538997
249	0xbcfdee1f	-0.030997334
250	0x3da0e6d3	0.07856526
251	0x3db7320f	0.08945095
252	0x3d839b6f	0.06426131
253	0x3cfceabe	0.030873653
254	0x3bb3386d	0.005469373
255	0xbdbb5575	-0.09147159

rnn.bias_ih_l0 f4 [64]
0	0x3cea0d76	0.028570872
1	0x3d59e37a	0.053195454
2	0xbdc9c5a6	-0.098521516
3	0x3dd38963	0.10328939
4	0x3d766bbb	0.060161334
5	0xbaa6569e	-0.0012690609
6	0xbdbb1da9	-0.091365166
7	0x3d823a54	0.063587815
8	0xbdfa0b1a	-0.12209149
9	0x3cce211d	0.025162274
10	0x3db8c726	0.090223595
11	0x3db71ec9	0.08941419
12	0x3d5ac2e9	0.053408537
13	0xbd3c5024	-0.045974866
14	0x3d93af92	0.07211222
15	0x3da9f479	0.082985826
16	0x3d200e45	0.03907611
17	0x3ca87ffe	0.020568844
18	0xbde35355	-0.11099879
19	0x3cd3096c	0.025761329
20	0xba055728	-0.00050865347
21	0x3da3d2e0	0.079992056
22	0x3dc8ad80	0.097987175
23	0xbd85ee85	-0.065396346
24	0x3c807c5e	0.015684303
25	0x3d9fa992	0.07796015
26	0x3dcc59d2	0.09978069
27	0x3cce3b6a	0.025174815
28	0x3daef717	0.085432224
29	0x3df196f3	0.117963694
30	0x3d8121f8	0.06305307
31	0xbd923162	-0.07138325
32	0x3da747cc	0.08167991
33	0xbd9c5b7a	-0.07634635
34	0xbd0de560	-0.034642577
35	0x3ced68af	0.028980581
36	0xbde7aa43	-0.11311772
37	0xbded28dc	-0.11580059
38	0x3d7188ff	0.05896854
39	0xbd024c22	-0.031810887
40	0x3dc137f3	0.094344996
41	0x3dbaf907	0.091295294
42	0x3b2b7c88	0.0026166756
43	0x3d698e20	0.057020307
44	0x3d936a83	0.0719805
45	0xbdc86a74	-0.09785929
46	0x3d8a1fd9	0.06744356
47	0x3c83a622	0.01607043
48	0x3dc62850	0.09675658
49	0x3d0452ef	0.032305654
50	0x3c9da428	0.019243315
51	0xbd1dedb7	-0.03855678
52	0x3d9693e1	0.073524244
53	0xbd7395ee	-0.059469156
54	0xbc5c6006	-0.013450628
55	0x3d9bdbe5	0.07610301
56	0xbd8aa4de	-0.06769727
57	0x3d21bdf3	0.03948779
58	0xbdc10519	-0.094248004
59	0xbcc1483f	-0.02359402
60	0x3dcc0b46	0.09963088
61	0xbd0a98cf	-0.033837136
62	0x3dc2bddd	0.0950887
63	0xbd8a1927	-0.06743079

rnn.bias_hh_l0 f4 [64]
0	0xbd88e611	-0.06684507
1	0xbde11fb7	-0.10992377
2	0xbd52d182	-0.051469333
3	0x3dc74687	0.09730249
4	0x3c1ae01a	0.009452844
5	0xbd011aa8	-0.031519562
6	0x3de5588f	0.11198532
7	0x3de5c760	0.112196684
8	0x3dd95687	0.10612207
9	0xbdb1b2cd	-0.08676682
10	0x3d740e0c	0.05958371
11	0x3bdd113a	0.0067464383
12	0x3cd8957f	0.026438473
13	0x3d1b9fa1	0.03799403
14	0xbc98f84e	-0.018673088
15	0x3c952b38	0.018209085
16	0xbe0c03ed	-0.13673373
17	0xbc1b4ef3	-0.009479272
18	0x3a735494	0.00092823175
19	0x3d49f709	0.049307857
20	0x3d345dc4	0.044034734
21	0xbdcf5512	-0.10123648
22	0xbdbd7923	-0.092516206
23	0xbd9a2b9c	-0.07527849
24	0x3dc1ac1b	0.09456655
25	0xbd322850	-0.043495476
26	0xbd3630d3	-0.044480156
27	0x3de2232e	0.11041866
28	0x3dcc7aba	0.09984346
29	0xbccd0af1	-0.025029631
30	0xbd9eadbb	-0.0774798
31	0xbb90de9f	-0.0044210698
32	0xbdae777d	-0.08518884
33	0x3d68e5d9	0.056859825
34	0xbdef9d22	-0.116998926
35	0xbd43895c	-0.047738418
36	0xbc2a2e36	-0.010386994
37	0x3aff29d6	0.0019467424
38	0xbdf851b4	-0.12124959
39	0x3d19ef9a	0.037582017
40	0xbdda9c5b	-0.10674354
41	0xbd40bcab	-0.047054928
42	0x3db6ee54	0.08932176
43	0xbdd64636	-0.104626104
44	0x3dca112e	0.09866558
45	0xbb7af802	-0.0038294797
46	0xbd5c8ff5	-0.053848226
47	0x3dd65f43	0.104673885
48	0x3d0cfddf	0.034421798
49	0xbdaa46c7	-0.08314281
50	0x3de5c57a	0.11219306
51	0xbd9b7de6	-0.075923726
52	0x3c8b500b	0.01700594
53	0xbcabf4fa	-0.020990837
54	0xbdaa89e4	-0.08327082
55	0x3c492a2a	0.012278119
56	0xbc61a549	-0.013772317
57	0x3ddabce8	0.10680562
58	0x3de7a306	0.11310391
59	0xbdc5808c	-0.09643659
60	0x3d73f022	0.05955518
61	0x3d987910	0.07444966
62	0xbd3c66c4	-0.045996442
63	0x3c6e81d0	0.014557317

linear.weight f4 [1, 64]
0	0x3db04b94	0.086081654
1	0xbd0e47ae	-0.034736328
2	0xbc9fcc9a	-0.019506741
3	0x3d53baa0	0.05169165
4	0xbdf62a46	-0.12019782
5	0x3d101e9c	0.03518544
6	0x3e1f0c1b	0.15531962
7	0x3de54050	0.11193907
8	0xbe07c3b3	-0.13258247
9	0x3deb6e46	0.11495642
10	0x3d971d6a	0.07378657
11	0x3dfc0ea4	0.1230748
12	0x3e2306cf	0.15920566
13	0xbcb3a370	-0.021928519
14	0x3d429aec	0.047511026
15	0xbe0f576e	-0.13998196
16	0xbd1b0e4f	-0.037855443
17	0x3d92525e	0.071446165
18	0x3e267a93	0.16257696
19	0xbc4aacc7	-0.012370295
20	0xbe15df87	-0.1463605
21	0x3d2e97f3	0.04262538
22	0xbdbc489b	-0.09193536
23	0xbd8b631d	-0.06806014
24	0x3e1a8af1	0.15092064
25	0xbe138151	-0.14404799
26	0x3be4af5b	0.006978912
27	0x3e07be1c	0.13256115
28	0xbe07513c	-0.13214582
29	0xbd8d4ad4	-0.06899038
30	0x3e0f2541	0.13979055
31	0x3de050eb	0.10952934
32	0xbde77221	-0.11301065
33	0x3cbcaf15	0.023032704
34	0xbdb5554a	-0.08854158
35	0x3db89205	0.09012226
36	0xbd373b6d	-0.044734407
37	0x3d20737b	0.03917263
38	0xbdb9da6b	-0.09074863
39	0x3d5ab7b4	0.05339785
40	0xbd506a0a	-0.050882377
41	0x3e2f8a46	0.17142591
42	0x3d814eeb	0.063138805
43	0x3e11156d	0.1416833
44	0x3da1471b	0.078748904
45	0x3c877bc5	0.01653851
46	0xbd9102c5	-0.07080606
47	0x3d772bda	0.060344554
48	0xbdc45632	-0.09586753
49	0xbb3ffd85	-0.0029295397
50	0x3d26321b	0.040575128
51	0x3e0bc603	0.13649754
52	0x3dcd090c	0.10011491
53	0xbcfb447b	-0.030672302
54	0x3da42c78	0.08016294
55	0x3dad7a1c	0.08470556
56	0xbd8c6b35	-0.068563856
57	0xbdf8139b	-0.121131144
58	0xbdf398ae	-0.11894356
59	0xbda78929	-0.08180458
60	0x3e091d00	0.13389969
61	0xbd8e3ca1	-0.06945158
62	0xbdb26d43	-0.08712246
63	0xbe0ebe85	-0.13939865
