temp_rnn_model.pth (torch, 23337 bytes, 6 tensors)

rnn.weight_ih_l0 f4 [64, 1]
0	0xbe592699	-0.2120613
1	0xbe85f15f	-0.26160714
2	0x3ea53e68	0.32274175
3	0x3e9dcb21	0.30819038
4	0xbe7e089f	-0.24807976
5	0x3dd5a56f	0.104319446
6	0x3ddb3550	0.10703528
7	0xbe9e6bc9	-0.3094161
8	0x3ea0207b	0.3127478
9	0x3e8d096e	0.27546257
10	0xbef391a9	-0.47572067
11	0xbe7834d6	-0.24238905
12	0xbe836dff	-0.25669858
13	0x3e03b483	0.12861829
14	0x3c313045	0.010814731
15	0xbeb0e737	-0.34551403
16	0xbe71ac39	-0.23600854
17	0xbe8b5753	-0.2721506
18	0xbdf2c81e	-0.118545756
19	0x3e3b7cf1	0.1830938
20	0x3d9aa1ec	0.075504154
21	0xbec6b34f	-0.38808677
22	0x3dd12fa5	0.102141656
23	0xbe69cdc0	-0.22832394
24	0xbdebbaf9	-0.115102716
25	0x3e51bcc8	0.2048217
26	0x3e0331a3	0.12811904
27	0xbe663be7	-0.22483788
28	0xbeb6f4d4	-0.35733664
29	0x3e555367	0.20832597
30	0x3e485c79	0.19566526
31	0x3df0c9d7	0.11757248
32	0x3ebcf76d	0.3690752
33	0x3b257869	0.0025248772
34	0x3e1a3669	0.15059818
35	0x3ea64b22	0.32479197
36	0x3d07e2d9	0.033175323
37	0x3ea380b0	0.31934118
38	0x3e684f96	0.2268661
39	0xbe7c7927	-0.24655591
40	0xbcc7c315	-0.024385015
41	0xbe23b46c	-0.15986794
42	0xbd363095	-0.044479925
43	0xbeb103f1	-0.3457332
44	0x3eb7b47b	0.35879883
45	0x3e2c4678	0.16823757
46	0xbd8c933f	-0.068640225
47	0x3dae2361	0.08502842
48	0xbe0e933d	-0.13923354
49	0xbe9630dd	-0.29334155
50	0x3e2ded52	0.16985062
51	0x3ec436bd	0.38323012
52	0xbe878bbb	-0.26473793
53	0xbe9802fa	-0.2968977
54	0xbe5db625	-0.21651514
55	0x3e67195b	0.22568266
56	0xbea2fb39	-0.31832293
57	0x3daa473e	0.083143696
58	0x3e344463	0.17604212
59	0xbe64d45d	-0.22346635
60	0x3e0cbf85	0.13744934
61	0x3d37e79d	0.044898618
62	0x3d68fb3a	0.056880213
63	0xbd1529fb	-0.03641699

rnn.weight_hh_l0 f4 [64, 64]
0	0x3e04fae9	0.1298634
1	0x3d130bcf	0.035899933
2	0x3e1c5cb5	0.1526974
3	0xbd75cd01	-0.06000996
4	0x3e017de3	0.12645678
5	0xbc8df8ad	-0.017330492
6	0x3cded28e	0.02720001
7	0xbe3c8a5f	-0.1841216
8	0xbd24bd6d	-0.040219713
9	0xbde59777	-0.1121053
10	0xbd0e7c98	-0.03478679
11	0x3d70d441	0.05879617
12	0xbda041fc	-0.078250855
13	0x3c845fde	0.016158994
14	0x3b67938d	0.003533575
15	0xbe092821	-0.13394214
16	0xbe1778bc	-0.1479215
17	0xbd26b235	-0.040697295
18	0x3be3699f	0.0069400812
19	0xbdedcbc3	-0.1161113
20	0xbd8852bb	-0.066564046
21	0x3db25e92	0.08709444
22	0x3dfbf229	0.12302048
23	0x3a5f30ac	0.00085140276
24	0x3d7989a5	0.060922284
25	0x3d0f284b	0.034950536
26	0xbda2cb7d	-0.079489686
27	0x3b0dc2cb	0.0021630998
28	0xbd9df4c7	-0.07712703
29	0x3dae952a	0.085245445
30	0xbdaeca18	-0.0853464
31	0x3e03f408	0.1288606
32	0x3df157b9	0.1178431
33	0x3ccae59b	0.024767688
34	0x3ded0176	0.11572544
35	0xbd477b21	-0.04870141
36	0x3c398003	0.011322024
37	0x3c3d6af3	0.011561143
38	0xbcaaadf9	-0.02083491
39	0xbe0904c0	-0.13380718
40	0xbdb17dca	-0.086665705
41	0xbca716f4	-0.020396687
42	0x3cb5ea73	0.02220652
43	0xbde682ea	-0.112554386
44	0x3ddbef83	0.107390426
45	0x3d4601d4	0.048341587
46	0x3ddc07df	0.10743689
47	0xbcd9d39e	-0.026590165
48	0x3dc03d76	0.09386723
49	0xbd987c38	-0.07445568
50	0x3ace874a	0.0015756872
51	0x3e0b1eec	0.13586015
52	0xbd57e8a9	-0.052712116
53	0xbe4045d4	-0.18776637
54	0xbd985f9a	-0.074401096
55	0x3e2a60ec	0.16638535
56	0xbe45e92a	-0.19327226
57	0x3d03e2ef	0.032198843
58	0xbdfd49af	-0.1236757
59	0x3dba18fc	0.09086797
60	0x3e1d8ce3	0.15385775
61	0xbd994a29	-0.07484848
62	0xbe0a46c6	-0.1350356
63	0xbd98ac3e	-0.074547276
64	0xbbe732df	-0.007055625
65	0x3dac6459	0.08417577
66	0x3e0bc722	0.13650182
67	0x3d281831	0.041038696
68	0x3e33342c	0.1750037
69	0xbdda257f	-0.10651683
70	0xbc9b676a	-0.01897021
71	0xbcc31a0c	-0.023816131
72	0x3b5a2623	0.0033286891
73	0x3d03761a	0.032095052
74	0xbe0dcae2	-0.13846925
75	0x3d7b6065	0.061371226
76	0xbda76db0	-0.08175218
77	0x3d88ca8e	0.06679259
78	0xbd91414e	-0.07092534
79	0x3d0b6b12	0.034037657
80	0x3cf6796b	0.030087193
81	0x3cfbbd72	0.030729983
82	0x3da640da	0.08117838
83	0x3d3c4de2	0.045972712
84	0x3b8a3d0a	0.004218702
85	0xbd952fb5	-0.0728449
86	0x3dd6452c	0.10462412
87	0xbdc96164	-0.09833029
88	0xbd8edd62	-0.06975819
89	0x3dc865fa	0.097850755
90	0xbdaf1141	-0.08548213
91	0xbe178127	-0.14795361
92	0xbe4a5122	-0.19757512
93	0xbd82c3bf	-0.06384992
94	0xbc9246b2	-0.017855976
95	0xbdc06b96	-0.093955204
96	0x3bbd1797	0.0057706344
97	0xbe6c7b39	-0.2309388
98	0xbdabd045	-0.08389334
99	0x3ba8aaf0	0.0051473305
100	0xbd25d518	-0.040486425
101	0xbc61c1e0	-0.013779134
102	0x3d4bf4e9	0.04979411
103	0xbdbc5085	-0.091950454
104	0x3c1c9c9e	0.009558825
105	0x3d918eff	0.071073525
106	0x3af02ca2	0.0018323848
107	0xbd8b2636	-0.067943975
108	0xbd880b0e	-0.066427335
109	0xbb16fdfa	-0.0023039565
110	0xbbae77a1	-0.0053243195
111	0xbd8fbc0c	-0.07018289
112	0x3dce9e1c	0.10088751
113	0x3d175f8f	0.036956366
114	0xbe3bcb5b	-0.18339293
115	0x3d6bb95a	0.057549812
116	0xbdab534d	-0.08365498
117	0xbe3a1b01	-0.18174364
118	0xbd9e7887	-0.077378325
119	0x3dec00fa	0.11523624
120	0xbd80a93c	-0.06282279
121	0x3df327c0	0.11872816
122	0xbd1b1c26	-0.03786864
123	0xbe13afe8	-0.14422572
124	0x3b0e751a	0.0021737278
125	0xbd4050bd	-0.046951998
126	0x3d17b457	0.03703722
127	0xbe5e5e18	-0.21715581
128	0x3a827a3f	0.0009954645
129	0xbd21152f	-0.039326843
130	0x3b203fd6	0.0024452112
131	0xbdb482c5	-0.08814005
132	0x3c560b45	0.01306421
133	0xbcc3cad3	-0.023900425
134	0x3d75ba5c	0.05999218
135	0xbe48d3ca	-0.19612041
136	0x3daf7565	0.08567313
137	0xbe05bd12	-0.13060406
138	0x3d20f91d	0.039300073
139	0x3c914d1a	0.01773696
140	0xbe420681	-0.18947794
141	0xbd3014be	-0.04298853
142	0x3d01e63b	0.031713706
143	0xbe2c7f71	-0.1684549
144	0x3e062a02	0.13101962
145	0xbc980486	-0.018556844
146	0xbc9dfa96	-0.019284528
147	0x3e3fe35c	0.18739074
148	0x3e09c5be	0.13454339
149	0x3cf02812	0.029315982
150	0x3c4fee49	0.012691089
151	0xbdc13265	-0.0943344
152	0xbd4d9e69	-0.0501999
153	0xbce0df25	-0.027450154
154	0xbd08cfbb	-0.033401232
155	0x3d4b01b9	0.04956219
156	0x3cb774ba	0.022394527
157	0x3d32a8b3	0.043617915
158	0x3d152d92	0.036420412
159	0x3dbbba36	0.09166376
160	0x3da39875	0.07988063
161	0x3db87520	0.09006715
162	0x3af7c093	0.0018901996
163	0x3dabef30	0.08395231
164	0xbd66fb89	-0.056392226
165	0xbcdaf19d	-0.026726538
166	0x3cdf0a5a	0.027226616
167	0xbe59a78c	-0.2125532
168	0x3c4f6453	0.0126581965
169	0x3d2e47ac	0.04254882
170	0x3d69e26b	0.057100695
171	0xbd9698ea	-0.07353385
172	0x3d9330f9	0.07187075
173	0x3cc02f2d	0.023459995
174	0xbd6699c9	-0.056299005
175	0x3d59a022	0.05313123
176	0xbcd789e0	-0.026310861
177	0xbe067962	-0.13132241
178	0x3e03ad41	0.1285906
179	0xbd7c49b8	-0.06159374
180	0x3d5a4b1d	0.05329429
181	0xbe285fb7	-0.16442762
182	0x3d9e1507	0.077188544
183	0x3dc25de6	0.09490566
184	0x3cc2ee89	0.023795383
185	0xbe23e688	-0.1600591
186	0x3d8ee613	0.06977477
187	0xbe026d9f	-0.1273713
188	0xbd61b4f1	-0.0551042
189	0x3b9e1474	0.0048242155
190	0x3d515d44	0.051114336
191	0xbd3c8a5d	-0.04603039
192	0xbcdd17be	-0.02698886
193	0xbe4fdfc5	-0.20300205
194	0xbd593323	-0.053027283
195	0xbd07a9ce	-0.033120923
196	0xbe384182	-0.17993739
197	0x3d70112e	0.058610134
198	0x3d32284f	0.043495473
199	0x3def97d6	0.11698882
200	0x3da0cf94	0.078520924
201	0xbd6bb6f2	-0.057547517
202	0xbe1f57b5	-0.15560801
203	0x3e28fd6f	0.16502927
204	0x3a14413c	0.00056554726
205	0x3ca47383	0.020074612
206	0x3d4c09f0	0.049814165
207	0xbe3c6010	-0.1839602
208	0xbcebdf63	-0.028793043
209	0xbd4b80bf	-0.04968333
210	0x3cda01e5	0.026612232
211	0x3d8f1cb3	0.06987896
212	0xbd34f763	-0.04418124
213	0xbda2d40e	-0.079506025
214	0x3d9a1ecd	0.07525406
215	0xbe083c21	-0.13304187
216	0x3db39cd4	0.08770147
217	0x3d183a93	0.037165236
218	0x3d6faeb3	0.058516216
219	0x3dc910ef	0.09817683
220	0xbd580779	-0.0527415
221	0x3c177a1e	0.009245424
222	0x3de8c538	0.113657415
223	0x3dcd25ce	0.10016976
224	0xbc626f01	-0.013820411
225	0x3e0f3373	0.1398447
226	0x3c12d621	0.008962185
227	0x3e65a768	0.22427142
228	0x3dae2370	0.08502853
229	0x3d9d6624	0.076854974
230	0xbdbde1c6	-0.092715785
231	0xbe28230a	-0.16419616
232	0xbdaf887c	-0.08570954
233	0xbd86f1f4	-0.06589118
234	0x3da58fdc	0.080840796
235	0xbe063cb2	-0.13109091
236	0x3d2ef5fe	0.042715065
237	0xbd124f83	-0.03572036
238	0x3d248b65	0.040172
239	0x3e163d74	0.1467188
240	0xbdd79bce	-0.10527764
241	0xbe0a23e4	-0.13490254
242	0x3d8bfcd4	0.068353325
243	0xbdffc530	-0.124887824
244	0x3b9d635c	0.0048031043
245	0x3deda313	0.116033696
246	0x3e0840f2	0.13306025
247	0x3d98c8ea	0.07460196
248	0xbda1525a	-0.078770354
249	0x3d12c830	0.035835445
250	0x3ccb928b	0.02485015
251	0xbdeaf3c3	-0.11472275
252	0xbd49fa3f	-0.04931092
253	0xbcf9b019	-0.030479478
254	0xbdcdeb76	-0.10054676
255	0x3c185a15	0.009298821

rnn.bias_ih_l0 f4 [64]
0	0xbdc71412	-0.09720625
1	0x3d516738	0.051123828
2	0xbdf47d6c	-0.11937985
3	0xbe09815c	-0.13428253
4	0x3e54d774	0.20785314
5	0x3d1f284b	0.038856786
6	0xbc0033ca	-0.0078248475
7	0x3c14301e	0.009044675
8	0xbd94c61b	-0.07264348
9	0x3da1c179	0.0789823
10	0x3d81727e	0.06320666
11	0x3bb23e26	0.0054395376
12	0xbdd76645	-0.10517553
13	0x3e02c74d	0.1277134
14	0x3e7ca334	0.24671632
15	0x3e220a2e	0.15824196
16	0x3d7450e8	0.05964747
17	0x3b83d5e7	0.004023302
18	0x3cf81b0a	0.03028633
19	0xbd962ab8	-0.07332367
20	0xbe62b38f	-0.22138809
21	0xbc099e04	-0.00839949
22	0xbcf0c6bf	-0.029391645
23	0x3e5aecac	0.21379346
24	0x3df1f4fd	0.11814306
25	0xbcfcbfad	-0.030853117
26	0xbe5b3d62	-0.21410134
27	0xbda4d697	-0.08048742
28	0x3dabd924	0.08391026
29	0x3e044afc	0.1291923
30	0x3df367d0	0.11885035
31	0x3d1677c6	0.03673532
32	0xbdddc887	-0.10829263
33	0x3d1b2938	0.037881106
34	0x3e0c2e67	0.13689576
35	0xbdc5ad50	-0.09652197
36	0x3e427c0d	0.18992634
37	0xbd906ed2	-0.07052387
38	0x3d86b199	0.06576843
39	0xba6049d8	-0.00085559255
40	0x3ddd056d	0.107920505
41	0xbe0e16a5	-0.13875826
42	0xbe2da228	-0.16956389
43	0x3e384fdc	0.17999214
44	0x3c73ac9d	0.014872697
45	0xbdccbcab	-0.09996923
46	0xbc9af87a	-0.018917311
47	0xbdc836f4	-0.097761065
48	0x3e4163b6	0.18885693
49	0x3dbbfe70	0.091793895
50	0x3da41666	0.08012085
51	0xbe000f05	-0.1250573
52	0x3e32da88	0.17466176
53	0x3d3b4068	0.04571572
54	0x3da887f7	0.08229058
55	0x3de962a7	0.113957696
56	0x3e25060e	0.16115591
57	0x3db2f02d	0.08737216
58	0x3dd9a592	0.10627283
59	0x3e1d7e30	0.15380168
60	0x3dbdfeb8	0.09277099
61	0x3d8c624f	0.068546884
62	0xbdb23dd7	-0.08703201
63	0x3ded08f3	0.115739726

rnn.bias_hh_l0 f4 [64]
0	0x3d8f2822	0.069900766
1	0x3d02ffe1	0.031982306
2	0x3daf91e0	0.08572745
3	0x3c8f4ee7	0.017493678
4	0x3ca8cbc7	0.020604981
5	0x3d8ae0ae	0.067811355
6	0x3d943f87	0.072386794
7	0xbe3dd158	-0.1853689
8	0xbd20fe70	-0.03930515
9	0x3d4f4f13	0.05061252
10	0x3ceb2f77	0.028709156
11	0x3daf88ae	0.085709915
12	0xbd87c15a	-0.06628676
13	0xbda165dd	-0.07880757
14	0x3e1f4826	0.15554866
15	0xbc5872f7	-0.0132110035
16	0xbdcb4ca0	-0.099267244
17	0xbd8ce5f7	-0.068798
18	0x3df24b19	0.1183073
19	0xbda1a7a3	-0.07893302
20	0xbe6af9bc	-0.22946829
21	0xbd238ee9	-0.03993121
22	0x3e12c229	0.14331879
23	0x3d684c53	0.056713413
24	0x3e2894b6	0.16462979
25	0x3e0c2159	0.13684596
26	0xbe15be85	-0.14623459
27	0xbde07dcd	-0.109614946
28	0x3da89411	0.082313664
29	0x3e3bfb5b	0.18357603
30	0xbd16ba62	-0.036798842
31	0xbb1da0dd	-0.002405218
32	0x3cb07fad	0.021545256
33	0x3e60ec9f	0.21965264
34	0x3d1cf74a	0.03832177
35	0xbde5768a	-0.1120425
36	0x3d6e8b2c	0.058238193
37	0x3bbf2dba	0.0058343085
38	0xbe0a1805	-0.13485725
39	0xbd9b849c	-0.075936526
40	0x3e13a21f	0.14417313
41	0xbe0a6e86	-0.13518724
42	0xbcce5a73	-0.025189614
43	0x3e242243	0.16028695
44	0xbc962cd6	-0.018331926
45	0xbe3951c4	-0.18097597
46	0xbdd2dfcc	-0.10296592
47	0x3cbfeb38	0.02342759
48	0x3e01acc1	0.12663557
49	0x3ca9f665	0.020747373
50	0x3d2be4df	0.041966315
51	0xbdf76c3d	-0.12081192
52	0x3e3dee66	0.18547973
53	0xbc208f40	-0.009799778
54	0xbc73c769	-0.014879086
55	0x3b8cb921	0.00429453
56	0x3d15e084	0.036591068
57	0x3df148e8	0.11781484
58	0x3c20a5bc	0.009805139
59	0x3e07c85a	0.13260022
60	0x3d32cd2a	0.04365269
61	0x3e1b6797	0.15176235
62	0xbcfd34bd	-0.030908937
63	0x3dd00cdc	0.10158703

linear.weight f4 [12, 64]
0	0xbe0b7cd0	-0.13621831
1	0xbdaaf023	-0.08346584
2	0x3df13b81	0.117789276
3	0x3da6f101	0.081514366
4	0x3dad1a91	0.08452333
5	0xbd4dcc1f	-0.050243493
6	0x3bd5fd46	0.0065304367
7	0xbed9bf51	-0.42528775
8	0x3dddf30b	0.108373724
9	0x3e1db737	0.15401922
10	0xbe7f4f67	-0.24932633
11	0xbe1b7073	-0.15179615
12	0xbe684d9d	-0.22685857
13	0x3e3f3167	0.18671189
14	0x3cd8d028	0.026466444
15	0x3c5e9756	0.013585886
16	0xbdad206e	-0.08453451
17	0xbc86b657	-0.016444368
18	0xbcfb998e	-0.030712869
19	0x3d2b9415	0.04188927
20	0xbd3d34be	-0.046192877
21	0xbdfb9d02	-0.12285806
22	0x3e0c44dd	0.13698144
23	0x3def3631	0.11680258
24	0x3d642d72	0.055707403
25	0x3d88c107	0.06677442
26	0xbe10420b	-0.14087693
27	0x3c310967	0.010805464
28	0xbdfcb26a	-0.12338717
29	0x3df847d8	0.12123078
30	0x3ba533fc	0.0050415974
31	0xbdb4b3ef	-0.08823382
32	0x3e211021	0.15728809
33	0xbd89f719	-0.06736583
34	0x3cff8447	0.031191004
35	0x3de11177	0.10989659
36	0x3de506c7	0.11182933
37	0x3d6efafd	0.05834483
38	0x3d08b818	0.03337869
39	0xbd841b81	-0.064505585
40	0x3cc1fdc3	0.023680573
41	0xbe1495ca	-0.14510265
42	0xbe203ec8	-0.15648949
43	0xbd1e74ca	-0.038685597
44	0x3e70d9aa	0.23520532
45	0xbca95cd5	-0.020674149
46	0xbd73ad4a	-0.059491433
47	0xbd9aa439	-0.07550854
48	0x3d539d99	0.05166397
49	0xbd873a49	-0.06602914
50	0x3c552829	0.013010063
51	0x3e8a871e	0.2705621
52	0xbd1bc29a	-0.038027383
53	0xbd1d057a	-0.0383353
54	0xbdfaefc1	-0.12252761
55	0x3e44a493	0.19203405
56	0xbd30e25d	-0.043184627
57	0x3da1b21c	0.078953
58	0xbd570291	-0.052492682
59	0x3d20ef1d	0.039290536
60	0x3e18ad6c	0.14909905
61	0x3db8bb89	0.090201445
62	0xbda954e0	-0.08268142
63	0x3d9d465c	0.076794356
64	0xbd0f3a6a	-0.034967817
65	0xbc7231ca	-0.014782378
66	0x3c59d15f	0.013294547
67	0xbd5a564a	-0.053304948
68	0xbd99871f	-0.074964754
69	0xbb889970	-0.004168682
70	0x3d65b6e2	0.056082614
71	0xbe99de1a	-0.30052263
72	0x3da3691d	0.07979033
73	0x3dd4d694	0.1039249
74	0xbe64c184	-0.22339445
75	0xbdd503c0	-0.10401106
76	0xbe315d8c	-0.17320842
77	0x3ddcb6f4	0.10777083
78	0x3e2d0252	0.16895416
79	0x3dad5d2a	0.08465035
80	0x3c4ce11d	0.012504843
81	0x3cf41cba	0.029798854
82	0xbd607eea	-0.054808535
83	0x3a420132	0.0007400691
84	0xbe715839	-0.2356881
85	0xbdfe9449	-0.12430627
86	0x3df2f68d	0.11863432
87	0xbd1cd081	-0.038284782
88	0x3cdf37bc	0.027248256
89	0x3e5b7e66	0.21434936
90	0xbdb423a3	-0.0879586
91	0xbe32e7a2	-0.17471173
92	0xbdfce58e	-0.123484716
93	0x3de0a32b	0.10968622
94	0x3e186c85	0.14885147
95	0xbde93c43	-0.11388447
96	0x3ded4bbd	0.115867116
97	0xbca576d2	-0.02019826
98	0x3dbed011	0.09317029
99	0x3df1d687	0.11808496
100	0x3e4612d9	0.19343127
101	0x3ddd45d1	0.10804332
102	0x3d8b92fd	0.06815145
103	0x3cf9a4f2	0.03047416
104	0x3d878a85	0.066182174
105	0xbdb15620	-0.08659005
106	0xbd4e50b7	-0.050369944
107	0xbd017718	-0.031607717
108	0x3dbed655	0.09318224
109	0xbde1c810	-0.11024487
110	0xbcf7532a	-0.030191023
111	0xbd9c9f7f	-0.07647609
112	0x3e11dbe0	0.14244032
113	0xbde95f64	-0.113951474
114	0xbd99282f	-0.074783675
115	0x3e169ac2	0.14707473
116	0xbd4a3686	-0.049368404
117	0xbd80fb12	-0.06297888
118	0xbdd50d22	-0.104028955
119	0x3b6ba204	0.0035954723
120	0x3d373bbc	0.0447347
121	0x3df507a0	0.11964345
122	0xbd7893ca	-0.060687818
123	0x3da3b65f	0.07993769
124	0x3d4d2904	0.050087944
125	0x3e44cd0c	0.19218844
126	0xbdde3f23	-0.10851886
127	0xbc41798c	-0.011808764
128	0xbd88b9f2	-0.06676091
129	0x3c85d77e	0.016338106
130	0x3db3c03c	0.087769
131	0x3df38b65	0.11891822
132	0xbda28f54	-0.07937494
133	0x3c229913	0.009924191
134	0xbd1edcc4	-0.038784757
135	0xbe9cfeb3	-0.3066307
136	0x3d121f13	0.035674166
137	0x3e43f808	0.19137585
138	0xbd15e277	-0.036592927
139	0xbd5412f1	-0.051775876
140	0xbdd800e6	-0.10547046
141	0x3c87b43f	0.01656544
142	0x3e386409	0.1800691
143	0x3d9b0335	0.07568971
144	0x3d993f4b	0.07482775
145	0x3c2815b9	0.010259085
146	0x3c7d99e0	0.015478581
147	0xbd998043	-0.07495167
148	0xbd81956a	-0.063273266
149	0xbdfcba61	-0.123402365
150	0x3db4661f	0.088085406
151	0x3ddf8226	0.10913496
152	0x3dfd7f3a	0.12377782
153	0x3cc0a5de	0.023516592
154	0xbe005a76	-0.12534508
155	0xbdad285b	-0.08454963
156	0xbe167f78	-0.14697063
157	0x3e3523e9	0.1768948
158	0x3e26cc32	0.16288832
159	0xbd98bbd3	-0.074576996
160	0x3e21c376	0.15797219
161	0xbb9968d1	-0.0046816845
162	0x3d1d0eef	0.03834432
163	0x3dd19757	0.10233944
164	0x3daad23d	0.08340881
165	0x3d4acd86	0.04951241
166	0x3d986d76	0.07442753
167	0x3d3283d0	0.043582737
168	0xbb78c412	-0.0037958664
169	0xbe661a0f	-0.22470878
170	0xbe27449d	-0.16334768
171	0x3db3405f	0.08752512
172	0x3e090abe	0.13383004
173	0xbcc3b827	-0.023891522
174	0xbdd49d8d	-0.10381613
175	0xbcb0c1b7	-0.021576745
176	0x3d5be38f	0.053683814
177	0xbd2af120	-0.04173386
178	0xbc8ddeb4	-0.017318107
179	0xbd845b8f	-0.06462776
180	0xbd107d25	-0.035275597
181	0xbd84e408	-0.06488806
182	0xbe284f59	-0.16436519
183	0x3e1f4e5f	0.1555724
184	0x3b9fecc2	0.0048805187
185	0x3dd9ed5d	0.106409766
186	0xbb6169e0	-0.0034395382
187	0x3dca8b3e	0.098898396
188	0x3dbbd9ca	0.09172399
189	0x3db258bb	0.0870833
190	0xbcd2ba23	-0.025723523
191	0x3cdbca97	0.02683
192	0xbe570e51	-0.21001555
193	0x3c531427	0.012883223
194	0xbd2d88dd	-0.04236685
195	0x3df68730	0.12037504
196	0x3d47fe06	0.04882624
197	0xbdde847a	-0.10865112
198	0xbd89c7b7	-0.06727546
199	0xbe3a38c6	-0.1818572
200	0x3cfdc3df	0.030977188
201	0x3d3773bb	0.044788104
202	0xbd8e7f18	-0.06957835
203	0xbdefcdc3	-0.11709168
204	0xbdea7524	-0.11448124
205	0x3d562576	0.05228182
206	0x3e151276	0.14557824
207	0x3d4944ba	0.04913781
208	0xbdbd76ba	-0.09251161
209	0xbd60de35	-0.054899413
210	0xbd31455c	-0.043279037
211	0xbe05db00	-0.13071823
212	0xbe8ca189	-0.27466992
213	0xbe30c481	-0.1726246
214	0x3d1d3fbb	0.038390856
215	0x3ca6d80c	0.020366691
216	0x3e595ea8	0.21227515
217	0x3e38376f	0.17989896
218	0x3c868af8	0.016423687
219	0xbd439e97	-0.047758665
220	0xbc332699	-0.010934495
221	0x3d9f33b4	0.077735335
222	0xbb1602c1	-0.0022889825
223	0xbcb60364	-0.022218414
224	0x3d4b5f70	0.049651563
225	0x3d45ec69	0.04832116
226	0x3da1278d	0.07868872
227	0x3e336b52	0.17521408
228	0x3dc97941	0.098375805
229	0xbdc4be25	-0.0960658
230	0x3db96185	0.090518035
231	0xbdb2667a	-0.08710952
232	0x3e1da2db	0.15394156
233	0xbdff7aac	-0.1247457
234	0xbe0f183f	-0.13974093
235	0x3d3cacc9	0.04606322
236	0x3e47083a	0.19436732
237	0xbc596e88	-0.013270982
238	0xbd9da643	-0.076977275
239	0xbd9df631	-0.07712973
240	0x3e2d4572	0.16921023
241	0xbd84919d	-0.06473086
242	0x3d456c7b	0.04819916
243	0x3bb7e0e7	0.0056115272
244	0x3e270e60	0.16314077
245	0xbd2b5dbf	-0.04183745
246	0xbe02610d	-0.12732334
247	0x3b8dce52	0.004327574
248	0xbc115f97	-0.008872888
249	0x3e0a690c	0.13516635
250	0xbd4f1a0e	-0.050561957
251	0x3d15ee4f	0.036604222
252	0x3d9ae708	0.07563597
253	0x3dbe1c03	0.092826866
254	0xbe05d81d	-0.13070722
255	0x3c889048	0.016670361

linear.bias f4 [12]
0	0x3e479f98	0.19494474
1	0x3ddca99c	0.10774538
2	0x3e484691	0.19558169
3	0x3d8df008	0.06930548
4	0x3db0b0c2	0.08627464
5	0x3e8789ae	0.2647223
6	0x3e748a57	0.23880897
7	0x3e6ad029	0.2293097
8	0x3e8a1b47	0.26973936
9	0x3e6ef6f4	0.23336393
10	0x3e7734b9	0.24141206
11	0x3e315e98	0.17321241
