temp_rnn_model.pth (torch, 23337 bytes, 6 tensors)

rnn.weight_ih_l0 f4 [64, 1]
0	0x3e48e940	0.19620228
1	0x3d2eea22	0.042703755
2	0xbd03fbb0	-0.03222245
3	0x3db61ef2	0.08892621
4	0xbd9e3b1d	-0.07726119
5	0x3e544c73	0.20732288
6	0x3e95235b	0.29128537
7	0xbe827df0	-0.25486708
8	0xbd80d228	-0.06290084
9	0xbea2a441	-0.3176594
10	0x3d2f471a	0.042792417
11	0xbe781de6	-0.24230155
12	0xbe8d8eb0	-0.27647924
13	0xbd44e7cd	-0.048072625
14	0x3e1043c3	0.14088349
15	0xbe663dfd	-0.22484584
16	0x3e627b49	0.22117342
17	0xbe3c3c05	-0.1838227
18	0x3dafb134	0.08578721
19	0x3eaaeb66	0.3338272
20	0x3e818a61	0.25300887
21	0x3e0240d3	0.12720041
22	0xbebc102f	-0.36731097
23	0xbc6ab52e	-0.014325423
24	0xbe106fcd	-0.14105149
25	0xbb1aaded	-0.0023602203
26	0x3c454474	0.012040246
27	0xbe92867a	-0.28618222
28	0xbea90ded	-0.33018437
29	0x3e13601a	0.14392129
30	0xbece36aa	-0.4027608
31	0x3c7556a3	0.014974269
32	0xbeb5184e	-0.35370106
33	0xbe60d590	-0.21956468
34	0xbe995431	-0.29947045
35	0xbde2520a	-0.11050804
36	0xbce91855	-0.028453985
37	0x3d629cc9	0.055325303
38	0xbe001aec	-0.1251027
39	0x3e91ed53	0.28501377
40	0x3e009abb	0.12559025
41	0xbe9ca21c	-0.3059243
42	0x3eac0224	0.33595383
43	0xbe9ba145	-0.30396476
44	0x3df87774	0.12132159
45	0xbe5e732c	-0.21723622
46	0x3e89957c	0.2687186
47	0xbdc31bec	-0.0952681
48	0xbe6ac049	-0.22924913
49	0x3e8675d5	0.26261774
50	0xbeac59c5	-0.3366224
51	0x3de393b8	0.111121595
52	0xbe31ae7e	-0.1735172
53	0xbec38370	-0.38186216
54	0x3dfa2720	0.12214494
55	0x3b2eb721	0.0026659446
56	0x3dd611a6	0.10452585
57	0xbe9e7569	-0.30948952
58	0xbe9896d1	-0.29802564
59	0x3d875c92	0.06609453
60	0xbd83b32e	-0.0643066
61	0x3e438d09	0.1909677
62	0xbdcc5caa	-0.09978612
63	0xbe8e4324	-0.277856

rnn.weight_hh_l0 f4 [64, 64]
0	0xbd47a9db	-0.04874597
1	0xbe225cac	-0.15855664
2	0x3cdeaf2f	0.027183143
3	0x3dc9f3c1	0.098609455
4	0xbd7de95f	-0.06199014
5	0x3a96926e	0.0011487731
6	0xbcaa213d	-0.020767802
7	0xbc9907e4	-0.01868052
8	0xbdc70c14	-0.097191006
9	0xbd6f2a5b	-0.058390003
10	0x3dfe95af	0.12430894
11	0xbc71db2b	-0.014761726
12	0xbdab8835	-0.08375589
13	0x3db42cd7	0.08797615
14	0xbdd1510b	-0.10220536
15	0x3e5d14d8	0.21589983
16	0x3dd15167	0.102206044
17	0x3d53f247	0.051744726
18	0xbd2856e7	-0.0410985
19	0x3d23f89b	0.04003201
20	0xbe5c8ec4	-0.21538836
21	0x3d0756be	0.03304171
22	0x3e01f001	0.1268921
23	0x3de8272a	0.11335595
24	0x3d96ed2f	0.07369458
25	0x3e25a324	0.16175514
26	0xbbd2d7e8	-0.0064344294
27	0x3d754ea7	0.05988946
28	0x3c766b2d	0.015040201
29	0xbd8325e2	-0.0640371
30	0xbd87af31	-0.06625212
31	0x3d43d626	0.04781165
32	0xbc4d1cec	-0.012519103
33	0x3e23e3e9	0.1600491
34	0x3cf44326	0.029817175
35	0xbddb94bf	-0.107217304
36	0xbd332f42	-0.04374624
37	0xbce1d64e	-0.027568009
38	0xbd0fb46c	-0.035084173
39	0xbd543b48	-0.051814348
40	0x3d7a88b6	0.061165534
41	0x3d51ce21	0.05122197
42	0x3e400baf	0.18754457
43	0xbcbe9c96	-0.023268025
44	0xbdd5863a	-0.10425992
45	0xbd31fb40	-0.0434525
46	0xbda6563a	-0.08121915
47	0xbddbaa07	-0.107257895
48	0x3dbc945b	0.09207984
49	0xbc76d788	-0.015066035
50	0x3e014fc3	0.12628083
51	0x3c2db42d	0.010602039
52	0xbe0ab1dc	-0.1354441
53	0xbc4737ac	-0.012159269
54	0x3d039a42	0.032129534
55	0xbbfc84d1	-0.0077062626
56	0x3dc37c7e	0.095452294
57	0xbe10d535	-0.14143832
58	0xbcc43f02	-0.023955826
59	0x3de79074	0.11306849
60	0x3db4752a	0.0881141
61	0xbdc82201	-0.09772111
62	0xbddbe52b	-0.1073707
63	0xbd8e7911	-0.06956685
64	0xbdab0ca0	-0.083520174
65	0xbf02de18	-0.5112014
66	0x3d57f15d	0.052720416
67	0x3dc6f1f7	0.0971412
68	0xbd6f7a75	-0.058466394
69	0xbdf01756	-0.11723201
70	0xbd0548a8	-0.032539994
71	0x3d0f8f15	0.035048563
72	0xbcf02b54	-0.029317535
73	0xbdeb51b8	-0.11490196
74	0xbda76a16	-0.08174531
75	0xbdb8389b	-0.08995172
76	0xbd91dc1d	-0.071220614
77	0x3e3eb11e	0.18622252
78	0xbc786514	-0.015160818
79	0xbe136825	-0.14395197
80	0x3cf1f813	0.029537236
81	0x3ca0699b	0.019581607
82	0x3d97fce4	0.07421282
83	0xbda12024	-0.078674585
84	0x3df12d6b	0.11776241
85	0x3da4038c	0.08008489
86	0xbc8d3b89	-0.017240303
87	0xbe03dcec	-0.12877244
88	0xbd1c50d6	-0.03816303
89	0x3cae586a	0.021282393
90	0x3d915617	0.070964985
91	0xbd116773	-0.035499047
92	0xbd255ed4	-0.04037364
93	0xbe12bca8	-0.14329779
94	0x3dac09ac	0.08400282
95	0xbd993dc3	-0.07482483
96	0xbd9af1df	-0.075656645
97	0xbd5b465a	-0.05353389
98	0xbd751e8a	-0.059843577
99	0xbd230eb9	-0.039808962
100	0xbda177e7	-0.07884198
101	0x3dd5418b	0.10412892
102	0x3dd1b9db	0.10240527
103	0x3debfde6	0.11523037
104	0xbdaa4e5a	-0.083157256
105	0x3cd79227	0.026314808
106	0xbde0cf2b	-0.10977014
107	0xbdb685f3	-0.089122675
108	0xbd4a5172	-0.04939408
109	0xbdbc26df	-0.091871016
110	0xbb4addae	-0.0030954885
111	0x3dd7872a	0.105238274
112	0x3e012abd	0.1261396
113	0xbd8bb304	-0.06821254
114	0xbd8605e8	-0.06544095
115	0x3e351364	0.17683178
116	0x3b9cf107	0.004789475
117	0x3d778567	0.060429957
118	0xbcbe34b1	-0.023218485
119	0x3dd26a87	0.10274225
120	0x3dc72436	0.097237036
121	0x3dd804cb	0.10547789
122	0x3cef4ee8	0.02921243
123	0xbde00790	-0.109389424
124	0xbdd71f8f	-0.10504066
125	0x3bf47b1f	0.0074609662
126	0x3ce150eb	0.027504405
127	0x3d76ca93	0.060251784
128	0x3ce7023d	0.02819931
129	0x3dd5360d	0.104107
130	0xbd475706	-0.048666976
131	0x3d9ea500	0.07746315
132	0x3d800b11	0.06252111
133	0x3b1bf124	0.0023794854
134	0x3dfa17c7	0.122115664
135	0xbe047edb	-0.12939017
136	0x3da68fd5	0.081329025
137	0xbdf0a924	-0.11751011
138	0x3cf91cac	0.03040918
139	0x3dd70465	0.10498885
140	0xbd7429eb	-0.05961029
141	0xbda0aaba	-0.078450635
142	0x3d2bc6c6	0.041937612
143	0x3c8d9ad3	0.01728574
144	0xbd54d70f	-0.05196291
145	0xbc233e59	-0.009963595
146	0x3d8b4c2e	0.068016395
147	0x3e0988bf	0.1343107
148	0x3d889783	0.066695236
149	0xbd933f61	-0.07189823
150	0x3d56d3eb	0.052448194
151	0x3d2ad6a4	0.041708604
152	0x3d3010d5	0.042984802
153	0x3e03c204	0.1286698
154	0xbdd6eab8	-0.10493988
155	0xbde5d4d2	-0.11222233
156	0x3e326550	0.1742146
157	0x3d6223ff	0.05521011
158	0x3b1cb3da	0.002391091
159	0xbcc1e016	-0.023666423
160	0xbd101a9e	-0.035181634
161	0xbd27772e	-0.040885143
162	0x3c99b423	0.018762654
163	0xbdf1ddc2	-0.11809875
164	0x3dbdde33	0.09270897
165	0x3d9fc1cb	0.07800635
166	0x3dd5acaa	0.10433324
167	0x3d34b667	0.044119265
168	0x3c98473a	0.018588651
169	0x3cab1ce7	0.020887805
170	0x3d89ffc7	0.06738239
171	0xbcb309d5	-0.021855274
172	0x3c082fb4	0.008312155
173	0xbd6ef52d	-0.058339287
174	0xbe006780	-0.12539482
175	0xbdbc072e	-0.09181057
176	0xbce82741	-0.02833903
177	0x3e0cdcdc	0.13756126
178	0xbd2bfd6d	-0.041989733
179	0x3dc5160a	0.09623344
180	0x3caaf456	0.020868462
181	0xbc3fd7ec	-0.011709195
182	0x3da8e366	0.08246498
183	0xbcd16ac0	-0.025563598
184	0xbd09cd2f	-0.033642944
185	0xbe3d36db	-0.18477957
186	0x3d876a48	0.066120684
187	0x3e00351d	0.12520261
188	0x3e61d9a6	0.22055683
189	0x3e01d08b	0.12677209
190	0xbda52d62	-0.08065297
191	0x3b88ecc7	0.0041786167
192	0xbd73c8f0	-0.0595178
193	0xbdcde5b5	-0.10053579
194	0x3cbf58d5	0.023357788
195	0x3dd15ced	0.10222802
196	0x3caaa5b2	0.020830963
197	0x3b9740e0	0.004615888
198	0x3dd87a2a	0.10570176
199	0xbcaeb320	-0.021325648
200	0x3d9b9fa8	0.075988114
201	0x3c4bae5b	0.012431706
202	0xbd673914	-0.05645092
203	0x3da5ce36	0.08095972
204	0x3caafb98	0.020871922
205	0x3da8d7bd	0.08244274
206	0x3ce70e06	0.02820493
207	0xbd8f209f	-0.06988644
208	0x3d649e43	0.055814993
209	0xbd9ae457	-0.075630836
210	0xbe3964ba	-0.1810483
211	0x3d47cd8c	0.04878001
212	0x3ddbc92a	0.107317284
213	0xbcabd1cc	-0.020974062
214	0xbddaf091	-0.10690416
215	0x3c8ef972	0.01745293
216	0x3d773710	0.060355246
217	0x3c8e7107	0.01738788
218	0x3dbd3399	0.09238357
219	0xbddce9bd	-0.107867695
220	0x3df395e4	0.11893824
221	0x3a0b37b3	0.0005310729
222	0xbe1ac05f	-0.15112446
223	0xbdd022d0	-0.1016289
224	0xbd3342f5	-0.043765027
225	0x3d33126f	0.04371875
226	0x3cdfd0d7	0.027321262
227	0x3c28a70d	0.010293734
228	0xbd51dde9	-0.05123702
229	0x3bcfd8e9	0.0063429964
230	0x3daa6ce5	0.08321551
231	0x3e034f5e	0.12823245
232	0xbd4ec7fb	-0.050483685
233	0xbe0b9058	-0.13629282
234	0x3df65e5d	0.12029717
235	0x3dccd70d	0.10001955
236	0xbe00bd6e	-0.12572262
237	0x3dfaa6ca	0.12238844
238	0x3bb352bb	0.0054725087
239	0x3d73b225	0.059496064
240	0xbe2f58cc	-0.17123717
241	0x3e2e7415	0.1703647
242	0x3c9993c7	0.018747224
243	0x3daacb56	0.083395645
244	0xbdd93aa8	-0.10606891
245	0x3cd5e289	0.026108997
246	0x3d652040	0.05593896
247	0x3da53194	0.08066097
248	0xbdb31834	-0.08744851
249	0xbe31c295	-0.17359383
250	0x3c65d5bf	0.014028012
251	0x3e3c46ca	0.18386379
252	0x3e563ae1	0.20920898
253	0xbdc77d8f	-0.09740745
254	0xbc19d1b6	-0.009388378
255	0x3de1dd78	0.1102857

rnn.bias_ih_l0 f4 [64]
0	0xbdd59d45	-0.104303874
1	0xbde9c2c6	-0.11414103
2	0xbdcc4603	-0.09974291
3	0xbe85970f	-0.2609181
4	0xbdd28a86	-0.102803275
5	0xbe307056	-0.17230353
6	0xbd2f6c6e	-0.042828016
7	0x3dbe49a0	0.092913866
8	0x3e34211d	0.17590757
9	0xbc420ca8	-0.011843838
10	0xbdb29276	-0.087193415
11	0xbdcecf4b	-0.10098132
12	0xbdaf379c	-0.085555285
13	0x3db2cc79	0.08730406
14	0xbdc30ff0	-0.09524524
15	0x3e37b2a7	0.17939244
16	0x3d0fc558	0.03510031
17	0x3e4998d5	0.19687207
18	0x3dd0545d	0.10172341
19	0x3d87bb11	0.06627477
20	0x3d7922f9	0.06082437
21	0x3de6f7be	0.11277722
22	0x3dcf92dd	0.10135434
23	0x3d0c6fd8	0.03428635
24	0xbdb0938e	-0.08621894
25	0xbe0ebe66	-0.13939819
26	0x3d6ffab4	0.0585887
27	0x3d858389	0.06519229
28	0x3c9b778a	0.0189779
29	0x3c57887f	0.013155102
30	0x3e070110	0.13183999
31	0xbe0805f7	-0.13283525
32	0xbd38951f	-0.045064088
33	0xbd3b93a4	-0.045795098
34	0xbd3ad514	-0.045613363
35	0x3d898507	0.06714826
36	0xbe4ce063	-0.20007472
37	0x3e2c2c24	0.16813713
38	0x3e511d97	0.20421444
39	0xbd47b1de	-0.04875361
40	0xbcdd2021	-0.02699286
41	0x3d77a318	0.060458273
42	0x3de9da39	0.11418576
43	0x3cd98644	0.02655328
44	0xbc87325a	-0.016503502
45	0xbdae795e	-0.08519243
46	0x3d8e2902	0.06941415
47	0x3e4e4f8f	0.20147537
48	0x3c2b329a	0.010449076
49	0x3d7d3f65	0.061828036
50	0x3de03666	0.10947876
51	0x3e7fec21	0.2499242
52	0xbe05672e	-0.13027641
53	0x3dd514dd	0.1040437
54	0xbd4746a4	-0.048651353
55	0xbdf36d71	-0.11886109
56	0xbcce2baa	-0.025167305
57	0x3e2890dd	0.16461511
58	0xbd060928	-0.032723576
59	0xbd3b9b32	-0.045802303
60	0x3bfe2600	0.007755995
61	0x3d32d3be	0.043658964
62	0xbd483b76	-0.04888483
63	0x3dee1f03	0.11627009

rnn.bias_hh_l0 f4 [64]
0	0xbe4953ec	-0.1966092
1	0xbdcc3d5f	-0.09972643
2	0xbdd75cb5	-0.10515729
3	0xbe83686c	-0.25665605
4	0x3d69f8dc	0.057122096
5	0xbe4a5d50	-0.19762158
6	0xbe1e0470	-0.1543138
7	0x3d89dca5	0.06731538
8	0x3d8d66fa	0.06904407
9	0xbb03a2ff	-0.0020086167
10	0xbe0ecf13	-0.1394618
11	0xbe05c09a	-0.13061753
12	0x3da9963b	0.08280607
13	0x3e1fb6d2	0.15597084
14	0xbe2ad549	-0.16682924
15	0x3e064038	0.13110435
16	0xbd106169	-0.035249148
17	0x3dd46af5	0.10371963
18	0x3c8eda0f	0.017437963
19	0x3d3f3b58	0.046687454
20	0xbe0051f2	-0.1253126
21	0x3d16e27b	0.036837082
22	0x3e0b809b	0.13623278
23	0x3c02e803	0.007989886
24	0xbca2f72a	-0.019893248
25	0xbe07119e	-0.13190314
26	0xbdf92585	-0.121653594
27	0x3e6b0665	0.22951658
28	0x3b6b8b9b	0.0035941366
29	0xbe69c39c	-0.22828525
30	0x3d68d0ae	0.056839637
31	0xbe2e2737	-0.17007147
32	0x3db8977f	0.090132706
33	0xbc165700	-0.009176016
34	0x3e082951	0.13297011
35	0x3c102eee	0.008800251
36	0x3ca48c51	0.02008644
37	0x3e2a0aec	0.16605729
38	0xbcc0c64d	-0.023532057
39	0xbd05b7b0	-0.03264588
40	0x3e27c5db	0.1638407
41	0x3dcea278	0.10089582
42	0xbcd3754d	-0.02581277
43	0xbd2db072	-0.0424046
44	0xbd9863de	-0.07440923
45	0xbe0282a7	-0.12745152
46	0x3d9fd6dc	0.07804653
47	0x3e2b46f4	0.16726285
48	0x3e245802	0.16049197
49	0xbc9826af	-0.018573133
50	0x3e0c8082	0.13720897
51	0x3dc871dc	0.09787342
52	0xbdfa45ff	-0.12220382
53	0x3c565d2a	0.0130837355
54	0x3dcc0653	0.09962144
55	0x3d423f3e	0.047423594
56	0xbc7a93ec	-0.015294056
57	0x3e36ecd9	0.17863788
58	0x3c14d220	0.009083301
59	0x3d429287	0.04750302
60	0xbcc4188a	-0.023937482
61	0x3dba636a	0.09100993
62	0xbe3c401f	-0.18383835
63	0xbc48b7d4	-0.012250859

linear.weight f4 [12, 64]
0	0x3d1e3677	0.03862616
1	0x3d915626	0.0709651
2	0xbdedaf19	-0.11605663
3	0xbe3b1707	-0.18270503
4	0xbda83d7a	-0.08214851
5	0xbc81285d	-0.015766317
6	0x3c6b0678	0.014344804
7	0xbdcdad9d	-0.1004288
8	0x3dd68c3b	0.104759656
9	0x3bd7ba72	0.0065835053
10	0x3cbba621	0.022906365
11	0xbe2cde79	-0.16881742
12	0xbe6bdcd0	-0.23033452
13	0x3c6e49bb	0.014543946
14	0xbe099eb4	-0.13439447
15	0x3d61b2ca	0.055102147
16	0x3e5d434d	0.21607704
17	0x3dffb350	0.12485373
18	0x3db92139	0.0903954
19	0x3e95a43b	0.2922686
20	0xbd66aaaf	-0.05631512
21	0xbd3e5a97	-0.046473112
22	0xbe206797	-0.15664516
23	0xbdbb438a	-0.091437414
24	0xbe2fc876	-0.17166314
25	0xbd14fd48	-0.03637436
26	0xbe088413	-0.13331632
27	0xbcc55848	-0.024089947
28	0xbdb42985	-0.08796982
29	0x3d18323b	0.03715728
30	0xbe97cc75	-0.29648176
31	0xba86e847	-0.0010292613
32	0xbe53d8ff	-0.20688246
33	0xbe34dcf2	-0.17662409
34	0xbd550943	-0.052010786
35	0xbdb1fed3	-0.08691182
36	0xbde3df14	-0.11126533
37	0x3daa1195	0.08304135
38	0x3d4358a5	0.04769196
39	0x3e4c25a1	0.1993623
40	0x3ce7392c	0.028225504
41	0xbdd3d70b	-0.103437506
42	0x3e46f4f7	0.19429384
43	0xbe398bf5	-0.18119796
44	0xbb97ac57	-0.004628699
45	0xbd113179	-0.03544757
46	0x3dc945b9	0.09827752
47	0x3e257d91	0.16161181
48	0x3c8668df	0.016407428
49	0x3e8d754d	0.27628556
50	0xbdb02866	-0.086014554
51	0x3d5be9df	0.053689834
52	0xbe3ff630	-0.18746257
53	0xbd2d5fbb	-0.042327624
54	0x3ca081df	0.019593177
55	0xbcc91703	-0.024547106
56	0xbcd91df4	-0.02650354
57	0xbe5924ea	-0.21205488
58	0xbdf3f3a8	-0.11911708
59	0x3e588284	0.21143538
60	0x3cc2b412	0.023767505
61	0x3dbc2b75	0.09187976
62	0xbda23592	-0.07920374
63	0xbd79e14e	-0.061005883
64	0xbb68a59a	-0.0035499097
65	0xbd6272b9	-0.05528519
66	0xbe2d0162	-0.16895059
67	0xbe7f5bf4	-0.24937421
68	0xbdd361ea	-0.1032141
69	0xbc9e473a	-0.019321073
70	0xbbc6574b	-0.0060528866
71	0xbe11a1e5	-0.14221914
72	0x3caa4a05	0.020787248
73	0xbe08c071	-0.1335466
74	0xbae2a5a3	-0.0017291795
75	0xbe4bc8f5	-0.19900878
76	0xbd5a5b0a	-0.053309478
77	0x3d2f0264	0.04272689
78	0xbda9e50c	-0.0829564
79	0x3c239f35	0.009986688
80	0x3dbcaaca	0.09212263
81	0x3e0669d6	0.1312631
82	0x3b3225c2	0.002718315
83	0x3e230d0b	0.15922944
84	0xbc35e32e	-0.011101527
85	0xbddf3b67	-0.10900002
86	0xbdc6a0dd	-0.09698651
87	0x3da13b1c	0.07872602
88	0xbe276ae4	-0.1634937
89	0xbda88a15	-0.08229462
90	0xbe4acac0	-0.19803905
91	0x3c6da8bc	0.014505561
92	0xbe25fce9	-0.16209759
93	0xbe10fb85	-0.14158447
94	0xbe2191cc	-0.15778273
95	0xbe447c98	-0.19188154
96	0xbd89843e	-0.06714676
97	0xbc9dfacd	-0.01928463
98	0xbd9d10c0	-0.076692104
99	0xbd9b2709	-0.07575805
100	0xbd9e7d31	-0.07738722
101	0x3dec70c8	0.11544949
102	0x3e3ccb43	0.18436913
103	0x3df9df0c	0.12200746
104	0x3dfe59c0	0.12419462
105	0x3d31566c	0.04329531
106	0x3ddf3de6	0.10900478
107	0xbe1cdcc5	-0.15318592
108	0x3d174b7f	0.036937233
109	0xbe3c4dfa	-0.1838912
110	0x3d87822e	0.06616627
111	0x3decf2e7	0.115697674
112	0x3ddd61e2	0.10809685
113	0x3e8b5287	0.272114
114	0x3d910870	0.070816875
115	0x3dc8d3b1	0.09806002
116	0xbe44b0b5	-0.19208033
117	0xbdfc2353	-0.12311425
118	0x3dfffd88	0.12499529
119	0xbcd2e0ae	-0.025741901
120	0x3d7334ce	0.05937653
121	0xbe11fc13	-0.14256315
122	0xbd525b9e	-0.051356904
123	0x3dab9e4d	0.08379803
124	0x3cf084cf	0.029360203
125	0x3e182e74	0.1486147
126	0xbe0dad81	-0.13835718
127	0xbd3c589d	-0.045982946
128	0xbe059513	-0.13045149
129	0x3d750488	0.059818774
130	0xbdf43bd0	-0.11925471
131	0xbe387385	-0.18012817
132	0xbc8e0e0b	-0.01734068
133	0xbd6d4872	-0.057930417
134	0x3d0b2b95	0.03397711
135	0xbbe90f05	-0.007112386
136	0x3da01bd4	0.07817808
137	0x3c9920ad	0.018692339
138	0xbd86ea86	-0.065877005
139	0xbe0e473e	-0.13894364
140	0xbe154e55	-0.14580663
141	0x3ce9b1b5	0.02852712
142	0xbdd6dce1	-0.10491348
143	0x3ce35044	0.027748235
144	0x3de7efa5	0.113250054
145	0x3dab18e3	0.08354356
146	0x3ce36162	0.027756397
147	0x3dc650c8	0.096833766
148	0x38967388	7.174077e-05
149	0x3db85599	0.090007015
150	0xbc5d90d2	-0.013523297
151	0xbdc7d259	-0.097569175
152	0xbd893cfe	-0.067010865
153	0x3bde33a2	0.0067810575
154	0xbd3f2ad4	-0.046671703
155	0xbc5968bb	-0.013269599
156	0xbe105a53	-0.14096956
157	0xbddec304	-0.1087704
158	0xbd5211af	-0.051286396
159	0xbe4f44c1	-0.20241071
160	0xbd8d624d	-0.06903515
161	0xbd8ef9e7	-0.06981259
162	0xbde8908a	-0.11355694
163	0xbd8d12fd	-0.06888387
164	0xbd3ccf0b	-0.04609589
165	0x3e22962a	0.15877596
166	0x3cfe239d	0.031022841
167	0x3e485baf	0.19566225
168	0x3d37b326	0.044848584
169	0xbde385f9	-0.11109538
170	0x3dbda5aa	0.092601135
171	0xbe25eaef	-0.16202901
172	0xbd861117	-0.065462284
173	0xbe240527	-0.1601759
174	0x3d9219e3	0.07133844
175	0xbd32aa5d	-0.043619502
176	0x3ce3b5e8	0.0277967
177	0x3e001ef9	0.12511815
178	0x3c899be0	0.01679796
179	0x3cef275a	0.029193569
180	0xbce86d3b	-0.028372398
181	0x3d604a6f	0.054758485
182	0x3c0f44a6	0.008744394
183	0xbd9684c6	-0.07349543
184	0x3d23c5a7	0.039983418
185	0xbd8f3ba1	-0.06993795
186	0xbdbf33e9	-0.09336073
187	0x3d61bc5b	0.05511127
188	0xbb6f96a8	-0.0036558304
189	0xbbfcf0ab	-0.0077191195
190	0xbe1e24fa	-0.15443793
191	0xbd8a4242	-0.06750919
192	0xbe0a0ba5	-0.13481005
193	0xbda42d51	-0.08016456
194	0xbd9256ee	-0.07145487
195	0xbe6a2111	-0.22864176
196	0xbbca5917	-0.006175171
197	0xbdca2606	-0.09870534
198	0x3cd6321a	0.026146937
199	0xbccc3052	-0.024925385
200	0x3dee8747	0.11646896
201	0x3cbe658f	0.023241786
202	0x3da23f8c	0.07922277
203	0xbcfdd93c	-0.030987374
204	0xbe118c84	-0.14213759
205	0x3d800d19	0.06252498
206	0xbdb1f34e	-0.08688985
207	0x3e26c933	0.16287689
208	0x3e32a3e0	0.17445326
209	0x3ded7f9d	0.11596606
210	0x3c3c701c	0.011501338
211	0x3d5a4143	0.053284895
212	0xbe01c33e	-0.12672135
213	0xbb4be225	-0.0031110134
214	0x3c8ff754	0.01757399
215	0xbd80ebbb	-0.06294962
216	0xbe109684	-0.14119917
217	0xbdb138ec	-0.08653435
218	0xbe22b94b	-0.15890996
219	0xbd2284fd	-0.03967761
220	0xbe3cb4d0	-0.1842835
221	0xbe2dca7c	-0.16971773
222	0xbd2df71d	-0.042471994
223	0xbdafaba9	-0.085776635
224	0xbddabb2e	-0.10680233
225	0xbc83ad41	-0.016073825
226	0xbbf3594d	-0.007426417
227	0x3cadb709	0.021205442
228	0xbde1db43	-0.11028149
229	0x3d964e2c	0.07339129
230	0x3d009308	0.03139022
231	0x3d8b83af	0.06812226
232	0x3e0a8a62	0.13529351
233	0x3d933af7	0.07188981
234	0x3e0dd015	0.13848908
235	0xbe0b0a02	-0.13578036
236	0xbb30f8ea	-0.0027003833
237	0xbe12a054	-0.14318973
238	0x3d305854	0.043052986
239	0xbc0771fb	-0.008266921
240	0x3e15e10d	0.14636631
241	0x3d9273e6	0.07151012
242	0x3c695f52	0.014243918
243	0x3e2ab130	0.16669154
244	0xbd542ddf	-0.05180156
245	0xbe11f0b2	-0.14251974
246	0x3e0ed40c	0.13948077
247	0x3c21e2e1	0.009880752
248	0x3de61c82	0.11235906
249	0xbe21798e	-0.15769026
250	0xbe4cd95c	-0.20004791
251	0x3e134068	0.14380038
252	0xbb71eb2f	-0.0036913862
253	0x3d685006	0.05671694
254	0xbe41e2bb	-0.18934147
255	0x3d86d3d7	0.06583374

linear.bias f4 [12]
0	0x3e55eae1	0.2089038
1	0x3d5e1924	0.054223195
2	0x3e4facd7	0.20280777
3	0x3dfa9090	0.12234604
4	0x3e0d5cfe	0.13805005
5	0x3dcf0e39	0.10110135
6	0x3e4bdd1e	0.19908568
7	0x3e5b0352	0.21387985
8	0x3ddd0f1d	0.10793898
9	0x3deb786b	0.11497577
10	0x3e76ec6f	0.2411363
11	0x3e012ec9	0.12615503
